Betel_publish/betel_display/betelnet.pt (torch, 34213 bytes, 28 tensors)

weight f4 [14, 8, 1, 1]
00000000: c558 373e 387f 163e dac8 9cbd 258b f03d
00000010: 7698 4b3d e787 3abd a368 25bd 4568 773e
00000020: 4d2c 323e 2860 643d 68e1 05bc fd83 053e
00000030: cea7 433e 7cc6 6e3b 79b5 b4bd 0797 4b3e
00000040: c402 a0bd 26d6 933c b0b2 91be b3db 05be
00000050: 6b0b 23be 7e36 503d f672 663d 2bc3 2c3e
00000060: b9e3 4bbe 44aa dd3d 1851 2f3e 9458 803e
00000070: a28f 17be 7189 f6bc 2cb2 70be fadf 873c
00000080: 6696 ba3d 2b30 353e dd42 bb3d e19c be3d
00000090: bebe 093e f93c e7bd 0402 82be 6bdf a6bd
000000a0: 2fe1 763e c380 b0be 2da1 993c 8b5b d0bd
000000b0: 84df 05be 6fb3 8b3e 8fe0 4abd 7835 4ebe
000000c0: 98bd 16bc d458 c93e aac4 92bd 0d0c a2be
000000d0: 28bb 86be f83f ba3d 75ca 873d e6b8 41bc
000000e0: 88bc a23d 4592 173e a33a 6abe ed66 223e
000000f0: c421 283e 7063 523e 97bb 44be f776 ed3c
00000100: c02a c3be df7e 803c 680c 833e 7898 8dbe
00000110: 2e3a 323e 1e33 80be b9b0 433e 5b66 06be
00000120: e611 0e3e 0291 e9bc 98db acbd aa9b 243e
00000130: ff1d 533c 2988 5a3c f405 9d3e bde7 d0bd
00000140: 584a b4be ea18 253d b76b b4be 8ff0 eb3d
00000150: 7d9e 1fbe e066 bc3d 2574 ac3e 41e1 e1bd
00000160: 4252 14bd 268c e2bd 6a92 b1be d028 42be
00000170: db7e 1f3d a1ef 753e 1406 20be 0e05 873e
00000180: 1897 3bbd 2b88 8c3d fe3a 003c a496 3e3e
00000190: 9583 5cbe e2af 7f3d ef75 5e3e 5279 653e
000001a0: eca8 993e 3b9e 153d 6bb6 c03e 19a8 97be
000001b0: 3b48 e43d 8a15 80be 0d3f d2bc 776a 35bc
0.17904957 0.14696968 -0.07655497 0.1174529 0.049705945 -0.045539763 -0.040382992 0.2416087
0.17399712 0.055755764 -0.008171417 0.13038631 0.19106981 0.0036434224 -0.08823676 0.19881831
-0.078130275 0.01804645 -0.2845664 -0.1307209 -0.15922324 0.050833218 0.05626198 0.16871326
-0.19911088 0.10823491 0.17120779 0.2506758 -0.14800885 -0.030094834 -0.23505467 0.016586293
0.091107175 0.17694156 0.091436125 0.09307266 0.13451669 -0.112909265 -0.25392163 -0.08148082
0.24109338 -0.34473237 0.018753612 -0.101737104 -0.13073546 0.27285334 -0.049530562 -0.20137584
-0.009200476 0.39325583 -0.07166417 -0.3164982 -0.26314664 0.09094232 0.066304125 -0.011823868
0.07946116 0.14801891 -0.2287393 0.15859576 0.1641913 0.20545745 -0.19212185 0.02898739
-0.38118553 0.015685497 0.25595403 -0.27655387 0.17405006 -0.25039 0.19110383 -0.13124983
0.13874015 -0.028511528 -0.08440322 0.16075006 0.01288557 0.013338127 0.30668604 -0.102004506
-0.3521297 0.040306963 -0.3523843 0.11520492 -0.15587802 0.09199309 0.3368236 -0.11029292
-0.03621126 -0.110618874 -0.34682018 -0.18960881 0.03893934 0.24017192 -0.15627319 0.26371044
-0.04579839 0.068619095 0.007826565 0.18612152 -0.2153457 0.062423594 0.21724676 0.22409561
0.3001169 0.036527853 0.37639174 -0.29620436 0.11146589 -0.25016433 -0.02566483 -0.0110727465

bias f4 [14]
00000000: 1006 e53d f147 b13d 9146 a4bd 9e3c 73be
00000010: b5e6 14be 5a44 b23d 51ca cfbd 8e1f 0b3d
00000020: 6ba4 b4be 16c7 873b e74b 4dbe 098c a4be
00000030: a2bb 233e edd7 933e
0.11182797 0.086563 -0.08021272 -0.23753592 -0.14541133 0.08704443 -0.10146011 0.03396564
-0.3528169 0.004143606 -0.20048486 -0.32138088 0.15989545 0.28875676

weight f4 [14]
00000000: 0361 823f de32 843f 1cdf 773f c838 7b3f
00000010: 4154 733f c417 7f3f 2867 853f 80a8 7f3f
00000020: 1f6a 803f aeee 763f 8e50 873f 7c1d 733f
00000030: 01d2 763f 3099 833f
1.0185856 1.0328023 0.9682481 0.98133516 0.95050436 0.9964564 1.0422106 0.99866486
1.0032386 0.96457946 1.0571458 0.94966865 0.9641419 1.0281124

bias f4 [14]
00000000: d0f6 923d eec9 af3c dc3a c03c d0c5 f13c
00000010: 0f7b 113d 887f 973d 5308 7c3d da84 2a3d
00000020: 7408 293d 7227 293d 0f4d 8f3d b029 3dbc
00000030: 5e58 11bd 4231 353d
0.07175982 0.021458592 0.023465566 0.02951327 0.03551775 0.073973715 0.061531376 0.041630603
0.041267827 0.041297384 0.0699712 -0.011545584 -0.035484664 0.04423643

running_mean f4 [14]
00000000: 34b6 e43d fd1c af3d abba a1bd 241e 6dbe
00000010: 2656 15be 21b9 a73d d018 cfbd b5e2 163d
00000020: 3cfd b4be 33cc a13b 0c07 44be fcf7 a4be
00000030: 2a71 283e 578c 8e3e
0.11167565 0.08550451 -0.07896932 -0.23156029 -0.14583644 0.081896074 -0.101121545 0.0368373
-0.35349452 0.0049376725 -0.19143313 -0.32220447 0.16449419 0.27841446

running_var f4 [14]
00000000: 9b00 7f3e 2093 3c3e 102b 6c3e 6510 bd3e
00000010: 8d5b 3f3e 7a9f 323f 8581 333f 7214 8d3e
00000020: 22cf 693f ff5e 173e f18a 503f 86e1 bb3e
00000030: eaa0 d03d dcc0 4d3f
0.24902575 0.18415499 0.23063302 0.3692657 0.18687268 0.6977459 0.70119506 0.2755466
0.91331685 0.14782332 0.8146201 0.36695498 0.10186942 0.80372405

weight f4 [20, 14, 1, 1]
00000000: 2920 c8bd 0773 95be f2e8 35be 693c 7f3e
00000010: bb80 4fbd 03bd 673e 65b0 c23c 743c 89be
00000020: 2147 11be 8b17 073b ffb8 7dbe 5b67 bcbc
00000030: 1da2 adbb 395d ac3c 324c c7bd 0079 673d
00000040: 0323 36be 6b17 423e b337 03be 4ad1 dbbd
00000050: 4d43 e83d 8fbc fdbd b6f2 e43b 87d4 723e
00000060: 77cd c43d e215 4d3e 111c 813a c292 7bbe
00000070: 6286 473e 9c63 733e 9d3a 90be 61ff 323e
00000080: 0615 4fbe 8520 c1bd c69f cbbb 9c7f 5b3e
00000090: d2ad 34bc d4d8 6c3d ad83 8dbe c67c cf3d
000000a0: 65fa cdbd de61 853e eb68 33be 86b4 1ebd
000000b0: 1655 34bd 8f56 0bbd bf8e 18be 9a54 e5bd
000000c0: 7b94 443c 7721 12bd 436c 14bd a991 d83d
000000d0: 0c32 e5bd d4d8 04be 9d6b 2d3e 01ec f73d
000000e0: 8b57 553e 5a5e 7ebe 5b33 69be 12a4 153e
000000f0: 4a43 b03b 17e3 62be cd04 f93d a056 0ebe
00000100: bd2c 46be c3b1 643e e43d 6e3e e7da 64be
00000110: cbaa 313e 6247 473e ed5f 573e 47bc ed3d
00000120: a97f 253e 9982 f73c 2cf2 7c3c 2542 4c3d
00000130: d2ac 803e 979f 80bc 682d 40be d855 02be
00000140: c97e 19be 0917 813e d486 263e 4927 dd3c
00000150: fc52 44be 3a20 41bd 34d6 823d 4088 5a3e
00000160: b6d7 ca3d 7dbe c93d 288a 273e 4b6d 99be
00000170: 6051 a1bd 4745 9c3b 253a 20be f2b3 d13d
00000180: 781d 0b3e 646b 663d 25ef d83c f1f1 4c3c
00000190: 772d 183e 0427 bc3d 0d9a 4fbe 2d15 543d
000001a0: 0256 03be b5d8 42bd fa3d 58be cd75 0a3d
000001b0: cc09 dbbc 87d8 203e ba2d 4ebd 96f4 9a3d
000001c0: 8f53 95be d7df 76be e305 f43d 37c0 7dbe
000001d0: dec4 ff3d 7624 103e 7568 d9bd 3d9a 0d3e
000001e0: 38f3 043d 2f4a 8cbe 8221 123e 4a32 5fbe
000001f0: 9a5b 4bbe 6d97 65be 3149 eebd 7b54 9cbd
00000200: 4f66 fd3d bc27 67be 1018 cc3d 8715 00be
00000210: c441 783e 1a38 3d3e f0d6 fabd 838d 253e
00000220: 4dba 273e 2453 a53c 680c 01bd 2296 ef3d
00000230: bcf1 6e3d 3a85 b03d 6f6e 823e 4302 f3bd
00000240: 539b e33c 164a 913d a65a 513e c1ce 0b3d
00000250: 5fa8 32be 04a5 423d 0f9f 0ebe d038 3a3d
00000260: 3b29 f03d 6523 503d 279a 103e 0bbb 67be
00000270: c2eb 3fbe d2dc cc3d 6e50 4fbe 0038 cb3d
00000280: 45d1 04be 2edb 81bc 3a16 84be 8e85 f03d
00000290: c473 88be 5494 203d bc80 79bd 83b1 a5bc
000002a0: 2723 4c3e fb45 82be c092 a2bd 13a7 9abe
000002b0: c4aa f33d 5f02 aa3d d22b 65be 8dd4 0e3e
000002c0: 2f90 8cbe 192a b03d 9239 f33d 018a 0b3e
000002d0: eec8 b1bd f2c0 7abd e111 1439 ea94 4e3e
000002e0: 4c10 313b da2c 5d3e 8fc8 dc3d a630 afbd
000002f0: cce2 99bd f1f8 ddbd c636 2abe 625a 5a3e
00000300: 20aa 71be 5cce 80bb 2e77 41be b224 9b3e
00000310: debf 89be caa5 93bd 2701 c1bd 323d d5bd
00000320: c22b ea3d 8217 663e f1f7 a3bd 0e9b b23d
00000330: 0b44 2e3d 8fa7 4ebe 30c0 613e 973f 5b3e
00000340: 59ef 503e 9e47 963d 79c9 c1bd 71b5 06be
00000350: 3b1a 4cbd c626 20be dd84 69bd 1c81 89be
00000360: 1e43 7b3e 7f2e 8a3e 510c 72be f576 49be
00000370: 685b 6b3d f50f 1cbe b7a5 4c3e caea 2e3e
00000380: 9f98 1ebe e2c5 16be 2305 3bbe dd7f 543e
00000390: 5ec3 73bd da5d 10be e3d3 643c c5a8 813e
000003a0: 9358 973c d9a9 55bd ab3d b03c 8734 1f3d
000003b0: fd52 29bd c7d0 8bbe a816 dfbb 07a3 603e
000003c0: 49e0 5e3e 5d50 3b3e dcbc 6b3d 6b62 eebd
000003d0: 9148 783e fa35 aebc e990 88bc d1bf 25be
000003e0: bac2 e1bc 0a4b ad3d ff65 663e dc34 44be
000003f0: 95cd 723e b4ca 6dbe 27ee 97bc b5ad 90be
-0.09771759 -0.2918932 -0.17764643 0.24925388 -0.050659876 0.22630696 0.023765752 -0.26803935
-0.1418729 0.0020613398 -0.24777602 -0.022998502 -0.0052988664 0.021040546 -0.0973133 0.05651188
-0.17786793 0.18954246 -0.12814216 -0.10733278 0.113409616 -0.1238948 0.006986941 0.23713885
0.09609502 0.20027879 0.0009850283 -0.24567702 0.19484857 0.23768467 -0.28169718 0.17480232
-0.20222864 -0.09430031 -0.006214115 0.21435398 -0.01102777 0.05782397 -0.27639523 0.101312205
-0.100575246 0.2605123 -0.17520492 -0.03874638 -0.044026457 -0.034018096 -0.14898203 -0.11197777
0.011998291 -0.035676446 -0.03623606 0.105746575 -0.11191186 -0.12973338 0.16935582 0.12105561
0.20834176 -0.2484068 -0.22773497 0.14613369 0.005379115 -0.2215694 0.12159119 -0.13900232
-0.19353004 0.22333436 0.23265797 -0.2234913 0.17350309 0.19460824 0.21032687 0.11608177
0.1616198 0.030213641 0.015438598 0.049867768 0.2513185 -0.015701098 -0.18767321 -0.1272806
-0.14989771 0.25212887 0.1626237 0.026996272 -0.19172281 -0.047149874 0.06388512 0.21341038
0.09904425 0.09850786 0.16361296 -0.29966196 -0.07876849 0.0047690007 -0.1564718 0.102394
0.1358546 0.05625476 0.02648122 0.012508855 0.14861093 0.09187129 -0.2027361 0.051778007
-0.12825778 -0.04756995 -0.21117392 0.03380375 -0.02673807 0.15707599 -0.050336577 0.07566182
-0.29165313 -0.24108826 0.11915185 -0.24780355 0.12488721 0.14076409 -0.10615627 0.13828368
0.032458514 -0.27400348 0.14270595 -0.21796528 -0.19859162 -0.22421046 -0.11635054 -0.07633301
0.123730294 -0.22573751 0.09965527 -0.12508212 0.24243838 0.18478432 -0.12248027 0.16167264
0.16379662 0.020181246 -0.031505972 0.116985574 0.058336005 0.08619161 0.2547488 -0.11865666
0.027784025 0.07094209 0.20444736 0.034132723 -0.17447041 0.047520652 -0.13927864 0.045464337
0.11726614 0.050815005 0.14121304 -0.22629945 -0.18742278 0.10003056 -0.20245525 0.099227905
-0.12970455 -0.015851583 -0.25798208 0.117442235 -0.26650822 0.039203957 -0.060913786 -0.020226246
0.19935285 -0.25444016 -0.079381466 -0.30205593 0.11897805 0.083012335 -0.22379997 0.13948269
-0.27453753 0.086017795 0.11876215 0.13626863 -0.086809024 -0.061219163 0.0001412104 0.20173994
0.002701777 0.21599141 0.10780441 -0.08554201 -0.07513961 -0.108384974 -0.16622457 0.21323541
-0.23600054 -0.00393085 -0.1889312 0.30301434 -0.26904196 -0.07209356 -0.09424048 -0.10412063
0.114341274 0.22469905 -0.080062754 0.087209806 0.04254536 -0.20181106 0.2204597 0.21410976
0.20403804 0.07337879 -0.09462256 -0.13155152 -0.049829703 -0.15639791 -0.057011474 -0.26856315
0.24537322 0.269886 -0.23637511 -0.19674285 0.05746022 -0.15240462 0.1998509 0.17081752
-0.15487908 -0.14723924 -0.18263678 0.20751901 -0.05951249 -0.14098302 0.013966533 0.25324073
0.018474853 -0.052163932 0.02151378 0.038868453 -0.04133891 -0.27307722 -0.0068081208 0.2193719
0.21765245 0.18292375 0.057553157 -0.116398655 0.24246432 -0.021265972 -0.016670661 -0.16186453
-0.027558673 0.08461578 0.22499846 -0.19160789 0.23711236 -0.23221856 -0.018546177 -0.28257528

bias f4 [20]
00000000: 755b acbd bfa3 a53c a816 81be 6de8 46bd
00000010: bba5 13bd caba 12be 5c6d aa3c 68dc ee3d
00000020: 40b6 c13d feeb 92bd 36e5 0b3e def4 ebba
00000030: f840 743e 8b1c 253e bb9d 1abe 9255 073e
00000040: 4c95 22be cf4d 58be 7600 213e 949d 733e
-0.084158815 0.020219682 -0.25212598 -0.048561502 -0.036046725 -0.14329067 0.0208041 0.11663133
0.094585896 -0.07173918 0.13661656 -0.0018002053 0.23852909 0.1612417 -0.15099232 0.13216236
-0.15877265 -0.21123432 0.15722832 0.2379058

weight f4 [20]
00000000: d1c0 7c3f 73fe 763f c919 823f bc55 813f
00000010: 9a0e 733f d61a 863f 5a4a 733f d6b3 863f
00000020: 3092 7b3f c2db 823f 5427 803f 493b 7a3f
00000030: 2fc3 783f 4e51 833f 93c3 7c3f e90f 7b3f
00000040: 82c1 783f e41f 813f e33e 853f 8722 833f
0.98731714 0.9648201 1.0164119 1.0104289 0.94944155 1.047694 0.95035326 1.0523632
0.9826994 1.0223315 1.0012002 0.9774671 0.97172827 1.0259187 0.9873592 0.9807115
0.9717027 1.0087857 1.0409817 1.0244912

bias f4 [20]
00000000: 0cb9 8c3c 4272 09bc e173 243d 9619 853c
00000010: e5ce 2fbd a22b 783d 7541 eebc fca9 443d
00000020: 295d 553c 545d 133d a6a5 453d 2021 7e3c
00000030: 6e93 61bc 18d6 0c3c c368 803c 113f e8bb
00000040: b178 89ba f625 193d 9c4f 813d 1cab a43c
0.017178081 -0.008389058 0.040149573 0.016247552 -0.04292192 0.060588486 -0.029083947 0.048013672
0.013022699 0.035977677 0.048253678 0.015510827 -0.01376806 0.008595966 0.015674954 -0.007087596
-0.0010488239 0.037389718 0.063140124 0.020101123

running_mean f4 [20]
00000000: cc32 a9be 8614 783c faae 27be 6ec4 4fbe
00000010: 997c b0bb 73d7 ac3d 60a4 303d a32f b23d
00000020: 0c37 67be 5495 713d 342a 993e 50b4 89be
00000030: 3414 fe3d 2cef 573e 2199 74bd 3ab0 1d3c
00000040: dfef a2be 1910 cabc 55c4 19bd 55af 843e
-0.33046567 0.015141612 -0.16375342 -0.20289776 -0.005385947 0.08439531 0.04312551 0.08700492
-0.22579592 0.0589803 0.2991501 -0.2689538 0.12406197 0.2108733 -0.059716348 0.009624535
-0.31823632 -0.02466588 -0.037540752 0.25915018

running_var f4 [20]
00000000: fe21 833e b692 dc3d dc44 aa3e a202 2b3d
00000010: d53b 653e 77fd 373e 081d ab3d e81d ca3d
00000020: 37d9 833e f394 253e a7d6 3a3e 941f 283e
00000030: 20af 6b3e 2134 b33e fc2d ea3d 1769 2e3e
00000040: 0f88 583e f427 5b3e 8f11 f93d 6c79 7e3e
0.2561187 0.107701704 0.3325566 0.041750558 0.22386105 0.17967783 0.08355147 0.098689854
0.2575166 0.16170101 0.18245946 0.16418296 0.23016024 0.3500071 0.11434552 0.17032276
0.21145652 0.2140196 0.12161552 0.24851006

weight f4 [25, 20, 1, 1]
00000000: fa28 983d 5641 00bd b134 1bbe 855d a7bc
00000010: 14f6 573e fd87 553e 2d64 3c3d f8dd e9bd
00000020: 053a 1ebe 9373 08be f8b6 a5bd de80 77bd
00000030: e1b6 29be 2db1 d8bc dfa2 43be 2b7b 433e
00000040: f061 033e 7b70 0cbe 4397 5f3e aefb b1bd
00000050: 9c85 43be 67c4 0f3e 7e1f da3d 8c54 b43d
00000060: cb3b 3a3c 168a cebc 0081 763d 86d0 5c3d
00000070: 1bb5 6e3d caec 673c 269d 38be daf8 a9bd
00000080: c0d2 afbd b5c4 bf3d ac77 453b 128f c3bd
00000090: 380c ebbd 3c80 523d e31f 81be c6d1 143e
000000a0: c267 de3d 52cb 423e 52cc 79be 189f 25be
000000b0: e836 e4bd b9c9 09be 0a29 f33d bcf6 3bbe
000000c0: a5b8 cebb 9353 3dbe e38c 133e 64fc 4d3e
000000d0: 0556 d83d a607 b73d 85b7 c2bc 876e aebd
000000e0: efba afbd ffa5 0bbe 1dc8 15be 4e09 5fbe
000000f0: f0b1 b5bc c18b 25be 6563 7a3c 748f 55be
00000100: da2c 0fbe f9fe 3f3d 9181 b4bc 40f6 aabd
00000110: c16a 3cbe 3464 853c bce3 83be fe53 66be
00000120: fe74 633c 2067 ed3d 9522 dfbd 452c d23d
00000130: a4aa f03d 2fbf 673e af12 1fbe d9c6 08b9
00000140: c54e cb3d 9cea db3d 9252 4c3c 3a64 c63c
00000150: f053 443d bff1 303e 5dfa 4bbe 4adb edbd
00000160: 4e1c 463d 4862 f6bc 77e8 febd 2493 a5bd
00000170: 32dc c7bd c3d5 813e 2937 153e 7aaf 403e
00000180: 2d10 1dbd bea4 9cbb a5a6 523e 071e ac3d
00000190: 620b ea3d 0c23 d6bd d55e 7ebe 30a6 3d3e
000001a0: ffa1 603c 217d 8abd ca73 2d3e 2419 44be
000001b0: a394 5b3e 7af3 8abd 33e2 183e 9fb0 a5bd
000001c0: 6ee6 a23d a1fb 053e f044 833d 8036 23be
000001d0: 3c7c 943d a8b4 253e 9acb c8bb aa0c 8bbd
000001e0: 763b 5f3d 600b 39be 27e3 d63d 1a49 823e
000001f0: a432 a0bc 39b1 8e3d 5683 bbbd 55be 0fbc
00000200: a3a6 273e 0d26 4bbe c03d 03be bc3a 20be
00000210: e0e5 823d e4d0 10be 8a2c 3b3e 06b8 1b3e
00000220: 3075 debd fe08 b2bd b08b eabc 4219 af3d
00000230: 56f5 27be 03f1 823d 75ea 5c3d 6995 b3bb
00000240: d149 9d3d 4ab4 e8bd 416a 013d 5fda 313e
00000250: 60fc 8fbd adc9 123c 42b2 2d3e d2e5 e1bc
00000260: 5d08 2e3d ba05 29be e56e 063d bb86 253d
00000270: 766b 06be 6735 51be b298 5b3e bdd0 eabc
00000280: 2301 2bbe 7622 e03d 797a 443e 3d8b 77be
00000290: eeec c43d e36a a33d 2df5 053e fd49 1c3e
000002a0: 47e6 98bd 4e82 3fbd d77f b23d ed38 2cbc
000002b0: 2741 35bd e721 48be 98e4 5a3d 4f46 90bd
000002c0: e88d 1b3b 1545 4abe 47a8 22be 3214 073e
000002d0: 75f7 d1bd 89da febc 473b f03d 7662 4c3d
000002e0: 771c ad3d 624e 0bbe 9848 e9bd 166e 53be
000002f0: 8fdc 10be 2c1e 84bd 5c1c 31be 8e75 e2bd
00000300: c81f a33d a24c 333e 54be fc3c 0451 113e
00000310: fcd0 9cbd 18d1 393e 9a85 823e 3c87 c93d
00000320: 3fc9 30be c3bc adbd 38d8 153d 3505 e93d
00000330: 37b1 143e d7a2 07bc bb94 0c3e 1ab1 0ebe
00000340: 7e92 dfbd 126b 163e ad94 e53d 89df e9bd
00000350: 20b0 b73d 789e 373e 4101 c23c 3c70 6f3e
00000360: 5aca 84bd 65f4 b43c 2721 a9bc fed0 0b3e
00000370: f118 bbbd 11be 2cbd 230f f2bd acec 5a3c
00000380: ebf2 1a3e 00e4 31bb ffa4 efbc b6f1 32be
00000390: 4909 ff3d fa4e 8a3d ffae 893d dec6 7fbd
000003a0: 2857 13bc 8301 fabd e884 3abe b616 c23c
000003b0: a927 5b3d d3a3 d5bd bf4c 11be 8724 563e
000003c0: c64d c03d 0d76 7b3d dd7b 22be 8d34 1fbe
000003d0: 83e0 e8bd e6a3 e0bd 3aa6 473c 79ba afbd
000003e0: c0e9 b1bd edfd b3bd d0e7 adbc c6f5 d1bd
000003f0: 2678 e73b f245 4dbd e78b 3a3e 6350 b53d
0.07429691 -0.03131231 -0.15156819 -0.020430336 0.21089965 0.20852657 0.045993973 -0.1141929
-0.1545182 -0.13325338 -0.08091539 -0.06042563 -0.16573669 -0.026451671 -0.19105099 0.19089954
0.12830329 -0.13714783 0.21835046 -0.08690582 -0.19093937 0.14039765 0.10650538 0.088051885
0.011366795 -0.025212329 0.060181618 0.0539098 0.058278184 0.014155576 -0.18028697 -0.08299418
-0.08585119 0.09363691 0.0030131144 -0.09548773 -0.1147694 0.051391825 -0.2521964 0.14533147
0.10859634 0.19022873 -0.24394348 -0.1617397 -0.11143285 -0.13455857 0.11873062 -0.1835584
-0.0063086324 -0.18488912 0.14409213 0.2011581 0.10563282 0.08937006 -0.02376915 -0.08517175
-0.08580577 -0.13637541 -0.14627118 -0.21780893 -0.022179574 -0.16166593 0.015282487 -0.20855504
-0.13981953 0.04687402 -0.022034438 -0.0834775 -0.18400098 0.016283132 -0.25759685 -0.22492978
0.013882874 0.11591935 -0.10895268 0.1026235 0.11751297 0.22631525 -0.15534471 -0.00013044047
0.099271335 0.107381076 0.012470858 0.024217714 0.04793161 0.17279719 -0.19919725 -0.11614092
0.048366837 -0.030076161 -0.12446683 -0.080847055 -0.09758796 0.253584 0.14571823 0.18816939
-0.038345505 -0.004780381 0.20571382 0.08404165 0.11427952 -0.104559034 -0.24840863 0.18520427
0.013710498 -0.06762148 0.16938701 -0.19150215 0.21443419 -0.06784721 0.14930038 -0.080903284
0.07954107 0.1308427 0.06409633 -0.15938759 0.07250258 0.16182196 -0.006127787 -0.06789525
0.054500066 -0.18070745 0.104925446 0.25446397 -0.019555397 0.06967396 -0.0915591 -0.008773406
0.1637216 -0.19838734 -0.12816525 -0.15647405 0.063915014 -0.14142185 0.18278709 0.15206918
-0.108621955 -0.086931214 -0.028631061 0.085497394 -0.16402182 0.063936256 0.053934533 -0.0054804576
0.07680095 -0.113625124 0.031595472 0.17368458 -0.070305586 0.008959216 0.16962531 -0.027575407
0.042488445 -0.16506091 0.0328206 0.040411692 -0.1312693 -0.20430528 0.21444967 -0.028663987
-0.16699652 0.10944073 0.19187345 -0.24174209 0.09615503 0.079793714 0.13081808 0.152626
-0.07465797 -0.046755128 0.0871579 -0.010511619 -0.044251587 -0.19544183 0.05344066 -0.0704466
0.0023735706 -0.19752915 -0.15884505 0.13191298 -0.10252277 -0.031110065 0.11730056 0.049898587
0.08452695 -0.1360412 -0.11390799 -0.20647463 -0.14146636 -0.06451067 -0.17295974 -0.11057578
0.07965046 0.17509702 0.030852474 0.14191061 -0.07657048 0.18146169 0.25492555 0.09840247
-0.1726427 -0.08483269 0.036583155 0.11377946 0.14520727 -0.00827857 0.13728611 -0.13934746
-0.10916613 0.14689282 0.11209998 -0.11419589 0.0896914 0.17931545 0.023682239 0.23382658
-0.06483908 0.022089193 -0.020645691 0.13653943 -0.091356166 -0.04217345 -0.11819293 0.013362091
0.15131728 -0.0027143955 -0.029253481 -0.17475018 0.12452943 0.06753345 0.06722831 -0.062445514
-0.008992948 -0.122073196 -0.18214762 0.02369247 0.05350462 -0.104316376 -0.14189433 0.20912372
0.09389834 0.06139188 -0.15867563 -0.1554739 -0.11370947 -0.10968761 0.012185628 -0.08580489
-0.086871624 -0.08788667 -0.0212287 -0.10251956 0.0070638834 -0.050115533 0.18217431 0.08853223

bias f4 [25]
00000000: 53f8 173e 3c80 abbd afde adbd ed75 5e3e
00000010: f081 2e3e 96f1 2c3e b6a0 17be d778 5f3e
00000020: 3082 183e 3851 513e 0204 e4bd a124 eebc
00000030: 4333 bf3c b4e0 5b3e e488 0e3e 36dc 84bd
00000040: 0e49 113e e7cc c53d 5fca d63d 0f38 9f3d
00000050: 8ae0 b63d 24ca fc3d 15f1 643e 0779 19be
00000060: eb7a 33bd
0.14840822 -0.08374068 -0.08489739 0.21724673 0.17041755 0.16889033 -0.148074 0.2182344
0.14893413 0.20441139 -0.11133577 -0.0290702 0.023339873 0.21472436 0.13919407 -0.064873144
0.14188024 0.09658223 0.10487818 0.07774364 0.08929546 0.12343243 0.2235759 -0.14987575
-0.043818396

weight f4 [25]
00000000: 9d95 733f e8fa 763f b0eb 743f 036b 803f
00000010: de39 863f 3e11 793f cfd7 7d3f 0ad4 843f
00000020: ad48 7a3f 7c3d 763f 6a66 803f 2528 853f
00000030: 8f6f 863f fd4f 843f 7bc0 803f 3fe6 843f
00000040: 2916 823f adbb 793f 4eba 773f c334 7c3f
00000050: e089 7b3f 8445 853f c474 753f 748c 733f
00000060: 3a04 773f
0.95150167 0.964766 0.9567213 1.0032657 1.048641 0.97291934 0.9915742 1.0377209
0.97767144 0.9618757 1.0031254 1.0402876 1.0502795 1.033691 1.005874 1.0382766
1.0163013 0.97551996 0.96768653 0.9851801 0.98257256 1.041184 0.95881295 0.9513619
0.96490824

bias f4 [25]
00000000: 3b41 26bd 6d77 b73c 560a 9c3c 4a30 7f3d
00000010: 99b0 6f3d 67ee 053d d3aa d2bc e6e6 9d3c
00000020: eafd af3c 99fb cdbc b2b7 523d 5138 583d
00000030: 4d8a 063d 29ee 623d 82d7 843c 22f5 243d
00000040: b7f2 6b3d b12a c6bb 6eba 243d ede2 09bc
00000050: a21b d2bc e9b4 603d 8643 6e3c 3910 0ebd
00000060: 9fd8 82bb
-0.040589552 0.022395814 0.019047897 0.06230191 0.058518026 0.03269806 -0.025716221 0.01927514
0.02148338 -0.025144385 0.051444717 0.052788083 0.032846738 0.05540291 0.016216043 0.04027284
0.057604518 -0.0060475697 0.040216856 -0.00841592 -0.025647942 0.05486003 0.014542466 -0.03468344
-0.0039931084

running_mean f4 [25]
00000000: 39e2 6e3d 560a 20be 4361 aebe 835d 55bd
00000010: 455d c63e 0f6d 853e 074c 17be 56dd 663e
00000020: e516 be3d c098 5d3e c9a1 853d 9160 1fbe
00000030: b916 66be 8372 153c 73ea bdbc 87d9 eebd
00000040: 7f99 913e 71c2 12be 5bb1 e9bd 4f1e 7f3e
00000050: 4337 183d f34a 59bd 2218 883e 1101 b33c
00000060: 5bf3 6cbe
0.05832121 -0.15628943 -0.3405858 -0.052091133 0.38743034 0.26059768 -0.14775096 0.2254537
0.092817105 0.21640301 0.06524999 -0.15564181 -0.22469606 0.00912154 -0.023183083 -0.11662584
0.2843742 -0.14331986 -0.11410781 0.24913906 0.037162077 -0.053049993 0.26580912 0.021851094
-0.23139708

running_var f4 [25]
00000000: 51d0 413e 1bc4 463d 65a3 ff3d ef28 683e
00000010: 4191 313d f834 363e b110 9c3d 601e e63d
00000020: b020 af3d 3bcd 033e e332 893e 3b21 873d
00000030: f5cd 573e fde8 3f3e a20c 113e 9565 763d
00000040: fa2d b33e 0a78 b73e 02cd a43d 243a 863d
00000050: dd00 213f d87c 4a3e 46cb dc3d 60bc fa3d
00000060: c516 f13d
0.18927123 0.048526864 0.12482337 0.22671865 0.043351416 0.17793643 0.07620371 0.11236262
0.085511565 0.12871258 0.26796636 0.06598135 0.2107466 0.18741222 0.14164975 0.06015547
0.34996015 0.3583377 0.08046915 0.06554058 0.6289194 0.19774187 0.10780959 0.12242961
0.11771921

weight f4 [40, 25, 1, 1]
00000000: b5eb ab3d 8a6f a3bd ebc6 db3d e22e 183e
00000010: 6390 a13d 675c d83d 5ae8 83be 59c5 393e
00000020: 5e52 073e 99c7 1f3e 5f8b 25bd 24d7 1cbc
00000030: 217a 1ebd 0ddb 83bc 5708 8e3d ed11 b03d
00000040: 3c26 fa3c 8c9d e4bd 098b a93d e007 333e
00000050: 6358 063d 08f4 643d 57dc 36be bbca de3d
00000060: 09cc db3d 81d0 37be 0ff3 01be b99d fe3c
00000070: 2f69 e23d faf9 0cbe f399 393d 1003 cc3d
00000080: 532c 36be 9c80 d9bd 1ffc d83d a5ae 84bd
00000090: d58f b53c 069e a73d ac47 23bc 33e6 123e
000000a0: 7850 df3d 789a 913d 3580 3fbe 5ec6 1b3d
000000b0: 252f bfbc db41 c1bd 4622 643e e0d8 52bd
000000c0: 4afd 22bd b3b7 173e be61 153e e385 bdbd
000000d0: d894 78bd 2ed0 603d 67ff 8abd d2a2 1d3d
000000e0: 0245 b93d eb2b d23c 0323 00be b8f7 5abe
000000f0: 1adb fc3a 3151 63bd 5eaf afbd c21a 633d
00000100: 75de 2ebc 8d32 c8bd f105 143e 2a4e 5b3c
00000110: f37e 623e d235 0c3e 6dfc 04bd 410f 273c
00000120: 1f6c b3bd 6c29 263e dec7 3ebd 71bd 0dbe
00000130: 63a9 c33d 1290 af3d 8d3f e43d 429b 0dbe
00000140: a469 5c3d 0492 cebd 465a 43be e9e3 49be
00000150: cd8f 03be 6311 143e 4c91 8fbd 427e 8c3c
00000160: e48d df3d 67fa 37bd 373d a6bc e1ae febd
00000170: f58e 3b3e 0e4d 19be 88e3 4c3c d765 b93d
00000180: 2852 0fbc c36b 36be d05c d1bc 716c 9fbd
00000190: f7ee ad3d 7e21 033e 074a da3d aff2 263e
000001a0: 3251 0bbe 0001 b43d 456e bd3d c5ef 86bd
000001b0: 8ac4 e2bd aeb3 c83d 93c7 73bc 0b7a 37be
000001c0: 35b7 4a3e ba95 ff3c 3d41 43bc d3b8 4bbe
000001d0: 5399 433e a414 093e d7c8 02bd fd45 d4bd
000001e0: 16bc c53d 9d52 0ebe 8982 1f3e 535b b6bd
000001f0: 12ae 28be 3850 913d b546 b93d 8949 c5bd
00000200: c2d2 46bd 43d8 243e 12bf 9abd 3e17 fb3d
00000210: 70d1 093e 9150 413d f568 d43c 3632 6ebd
00000220: eb0a d93d 322b 48be f2f5 d9bd 5ca4 733e
00000230: 8941 023e 0e4c a3bd c968 0b3e cb0e 08be
00000240: 7df8 d0bd 2e63 24be c229 e2bd ddb1 a43d
00000250: 3b31 3b3e bc05 ab3b c2a1 81bd 620d d33d
00000260: 71dd 213e b543 95bd df51 52be 61f6 34bc
00000270: fb5b e4bd 6c1b 8ebb 54ed ac3c e91c e03d
00000280: 1b51 023e 713c b0bd 88cf 31be 0c5c 1a3e
00000290: 4db3 543e bd3c bd3c 4735 aabd ed37 ec3b
000002a0: 7320 443e 9fb4 cd39 003b c33d d28a bebd
000002b0: e0a2 043e 0895 4f3e b129 653e 80c2 113e
000002c0: 141f 96bd 5190 39bd 1496 9b3d 3d67 77bd
000002d0: 7252 1abe f97f 2dbe af5a 873d 49f3 2dbe
000002e0: 0a82 9dbd f8b0 713c 511d 02be 94fb 1bbe
000002f0: 7d91 92bd a3be 5f3d 5014 9bbd fe9a cf3d
00000300: 5949 413d be23 a63c b5ed 0ebe 9780 7d3d
00000310: aa8c 403d 6686 3e3b 6cfc b9bd ea39 c13d
00000320: 1a7a 80bc d7cd c0bd 4d04 813d ed6e e3bd
00000330: 45e7 b03d 87f8 4d3d 4d99 3f3e 4cce 453d
00000340: a155 943c 1d67 213e 0704 30be a4f1 803d
00000350: bf83 24bd e7e1 853d 3832 03be dee5 37be
00000360: fb45 fc3d ece2 e93b 24bc f6bb d14b a7bd
00000370: dceb 31be d95e 1a3c 24b4 abbc ad23 253e
00000380: cf02 e43c d9cd 14be 55f6 1b3e 3301 ab3c
00000390: 6b2f 813d b549 ccbd 8094 0e3e 156c e8bd
000003a0: 2d14 06be b77a 343e 257a 623d a908 6c3d
000003b0: 2ec3 c7bd 4792 1d3e 24e9 44bd c65c e1bc
000003c0: 4fa7 da3d 147e 87bd f7c3 82bd fbdf 0e3e
000003d0: c605 b3bd 280e 1f3e 0152 59bc 7ff8 01be
000003e0: 2874 ce3d f241 f7bd a23d aebc e47e 15be
000003f0: a7c4 153d b9b9 023d b6a8 1c3d 43c6 8bbd
0.08394567 -0.07980259 0.107313 0.14861634 0.07888868 0.10564499 -0.25763208 0.18141688
0.13215014 0.15603484 -0.040416118 -0.009572778 -0.03869069 -0.016095662 0.069351844 0.08597169
0.03053581 -0.11162862 0.08278472 0.17483473 0.032799136 0.05589679 -0.1785749 0.108785115
0.10732276 -0.17950632 -0.12690376 0.031081067 0.110552184 -0.13767233 0.045312833 0.099615216
-0.17790346 -0.106202334 0.10594963 -0.06478623 0.022163311 0.081844375 -0.009965818 0.14345627
0.1090402 0.07109541 -0.18701251 0.038030975 -0.02333791 -0.09436389 0.222787 -0.05147636
-0.039792337 0.1481617 0.14588067 -0.092540525 -0.060688823 0.054886036 -0.067869954 0.038485356
0.09046365 0.025655707 -0.12513356 -0.2138356 0.0019291372 -0.055497352 -0.085783705 0.05544544
-0.010673155 -0.09775267 0.14455391 0.013385335 0.2211874 0.13692406 -0.032467294 0.010196508
-0.08760857 0.16226739 -0.046577327 -0.13841797 0.09553792 0.08572401 0.11144934 -0.13828757
0.053811684 -0.10086444 -0.19077405 -0.19715847 -0.12847824 0.14459758 -0.07010135 0.017150048
0.10915735 -0.044916537 -0.020292861 -0.12435699 0.18316253 -0.149708 0.01250542 0.090526275
-0.008747615 -0.17814545 -0.025556952 -0.077843554 0.084928446 0.12805745 0.10658651 0.16303514
-0.13605192 0.08789253 0.09249548 -0.06588701 -0.11072643 0.09799896 -0.014879125 -0.1791765
0.1979645 0.031199325 -0.0119174095 -0.19894724 0.19101457 0.1338678 -0.031929817 -0.10364912
0.09655015 -0.13898702 0.15577139 -0.089041375 -0.16472653 0.07095379 0.090466894 -0.09633166
-0.048540838 0.16098122 -0.07555975 0.122602925 0.134588 0.047195975 0.025928954 -0.058153354
0.105977856 -0.19547728 -0.106426135 0.23793167 0.12720312 -0.07973491 0.13614191 -0.13286893
-0.102036454 -0.16053459 -0.11043121 0.08041737 0.18280499 0.0052191895 -0.06329681 0.10305287
0.1580713 -0.07288305 -0.20539044 -0.011045069 -0.111503564 -0.004336765 0.02110926 0.10943014
0.12726252 -0.08605278 -0.17364323 0.15074176 0.20771523 0.023100251 -0.08310943 0.0072088153
0.19153003 0.0003923522 0.09532738 -0.093038216 0.12952757 0.20271695 0.22379185 0.14234352
-0.073301464 -0.045303646 0.075969845 -0.06040119 -0.15070513 -0.16943349 0.066090934 -0.16987337
-0.076908186 0.014751665 -0.12706496 -0.15232688 -0.07156656 0.054625165 -0.07572234 0.10136984
0.04718909 0.020280715 -0.13957866 0.06189021 0.047009148 0.0029071807 -0.09081349 0.09434874
-0.015683223 -0.09414261 0.062996484 -0.11105142 0.08637861 0.050285842 0.18710823 0.048292443
0.018107237 0.15761991 -0.17189036 0.06296089 -0.040164705 0.06537228 -0.12812126 -0.17958781
0.12318035 0.007137647 -0.0075297523 -0.08168758 -0.1737513 0.0094220275 -0.020959921 0.1612689
0.02783337 -0.1453165 0.15230687 0.020874595 0.063078724 -0.09974996 0.13923836 -0.1134874
-0.13093634 0.17624937 0.055292267 0.057625446 -0.097540244 0.15387832 -0.048073903 -0.027510058
0.10676443 -0.06615844 -0.063850336 0.1395263 -0.087413356 0.15532744 -0.01326418 -0.1269245
0.10080749 -0.12073125 -0.021269623 -0.14599186 0.036564495 0.0319154 0.038246833 -0.06824925

bias f4 [40]
00000000: f86f a4bc f1b6 f0bb 8737 f33d 7b5b 073e
00000010: 7239 e83d 6131 04be d511 c03d 9dca 3d3e
00000020: 1519 9a3d 568a 813d 0a98 903d ca52 47be
00000030: 5bd4 313e c43a b1bb 0a12 453c 4c2f b03d
00000040: d14a 4c3e 9e7a 483e 1dd5 3b3e acf1 f33c
00000050: 51bd f0ba 72e3 0b3e 3115 0fbc 2125 303e
00000060: efe8 1dbe 723b 24be 6635 243e 7e01 25be
00000070: a9d3 27be e0af 953d de4a 8b3d 29c8 b5bd
00000080: 3e6d a6bc 0c68 a3bc 17e3 d3bd 420d 163e
00000090: ce51 0dbd c73e d13c 4e61 82bd e0d4 933d
-0.020072922 -0.007346027 0.118758254 0.13218491 0.11339082 -0.12909462 0.09378401 0.18534322
0.07524315 0.063252136 0.07060249 -0.19465175 0.17366163 -0.0054086167 0.012028227 0.08602771
0.19950415 0.19578025 0.18343015 0.029778324 -0.0018366968 0.13660982 -0.00873308 0.17201664
-0.15420888 -0.16038302 0.16035995 -0.1611385 -0.16389336 0.07308936 0.06801389 -0.08876068
-0.020315763 -0.019947074 -0.10346048 0.14653495 -0.034501843 0.02554263 -0.06366216 0.07218337

weight f4 [40]
00000000: 831a 833f 9a8b 873f 11e3 893f 0655 873f
00000010: 7a08 873f b4b3 873f d51a 883f 0f50 883f
00000020: 5901 893f 3acb 823f eeaf 863f a757 833f
00000030: 1b1e 873f 01e8 863f 35fe 873f 4825 863f
00000040: e0d8 803f bfe6 873f a121 873f 4d92 883f
00000050: 2f97 853f c3c0 873f 1962 883f ac70 883f
00000060: cd2f 883f 1d3e 883f e3d0 853f 9650 883f
00000070: 415a 823f 03aa 863f 0355 7d3f 8401 7b3f
00000080: 845c 873f b2e8 863f 8425 893f ad63 893f
00000090: da7e 873f c36d 843f f03c 873f af16 863f
1.0242466 1.0589478 1.077242 1.0572822 1.0549462 1.0601716 1.0633188 1.0649432
1.0703536 1.021827 1.052244 1.0261124 1.0556062 1.0539552 1.0624453 1.0480127
1.0066185 1.0617293 1.0557138 1.0669647 1.0436763 1.0605701 1.0654937 1.0659385
1.0639588 1.0643955 1.0454372 1.0649593 1.0183793 1.0520633 0.9895784 0.9804919
1.0575109 1.0539763 1.0714574 1.0733544 1.0585587 1.0345997 1.0565472 1.0475672

bias f4 [40]
00000000: 21f7 9abb b68b 633d ecbd 7b3d d38c 873d
00000010: d85f 2f3d 3ae9 863d 9808 853d dd1c 513d
00000020: 45a9 883d e356 783c ffc7 413d f815 4dbc
00000030: c29c 213d ef2e 173d 24cb 1a3d a870 5e3d
00000040: 503f f73b d6f6 673c 1f6f 263d 209f 6c3d
00000050: d3e4 033d cfdf 493d 6a4f 4a3d 0dfe 7b3d
00000060: dd2f 533d 97ad 033d 676d dd3c 128b 283d
00000070: 6934 2a3b 28a5 793d 1164 d2bb 718d f9bc
00000080: a60e 3a3d 9bdf 6b3d af2d 543d a008 043d
00000090: 15a6 253d 0d37 bebc fa57 8d3d 39be 253d
-0.004729167 0.05555316 0.06146042 0.06618657 0.042816013 0.06587453 0.0649578 0.051052917
0.066729106 0.015157434 0.04730987 -0.012517445 0.039456137 0.036909994 0.037791386 0.054306656
0.0075453892 0.014157971 0.040633317 0.05776894 0.032200646 0.049285706 0.04939214 0.06152158
0.051559318 0.03214797 0.027029706 0.041148253 0.002597118 0.06094852 -0.0064206203 -0.030462952
0.045424126 0.057586294 0.05180138 0.032234788 0.04044159 -0.02321961 0.06901546 0.040464614

running_mean f4 [40]
00000000: 8b17 8e3e 8a7f e63c ad20 1b3e 72ef 66bd
00000010: 0189 493e d9c7 40bd 16a6 a03e faeb 7abc
00000020: e490 9e3d 62a3 f53d a220 f63d a35e 01be
00000030: 4aec 6abd a898 50be 0d74 9c3d 74cb 9e3d
00000040: 529f e63e 204b ae3c 8754 443e 91e3 0abe
00000050: f8f4 03bc 6f0a 533e c2ee 533e 7bbf 48bd
00000060: 55bb d0be 97e1 bbbe 09ed 733e ff21 afbe
00000070: b27d 87bc 881e c03e a121 583e 1fe0 3cbe
00000080: f7d6 e73d 488c 64bd 90c8 50bd 33a6 7ebd
00000090: e310 00be acef 863c 6754 08bd b233 03bd
0.27752337 0.028136987 0.15149184 -0.056380697 0.19681169 -0.04706559 0.31376714 -0.01531505
0.077424794 0.119940534 0.12017943 -0.12633757 -0.05735425 -0.20370734 0.076393224 0.07753649
0.45043427 0.021276057 0.1917287 -0.13563372 -0.008054011 0.20609449 0.20696548 -0.049010735
-0.40767923 -0.3669555 0.2382089 -0.34205624 -0.016539428 0.37523293 0.21106578 -0.1844487
0.11320298 -0.055797845 -0.05097252 -0.06217022 -0.12506442 0.016471706 -0.033283617 -0.032031722

running_var f4 [40]
00000000: eeb4 933d b109 583e 9e81 a53d 0ce3 4f3e
00000010: 2c11 d23e cfe3 743e b32a 293e 9f42 e93d
00000020: 5010 9f3d 86db 8f3e 1a95 4a3e a7c8 023d
00000030: e47d 7a3e 7f1e 8a3d 6aed 8f3e d09e 6e3e
00000040: c73a 4a3e 359a 173e bdc7 933e a713 a63d
00000050: ca87 533e b327 353e 055c 763e 517d 443e
00000060: 1b7d 573e a3e9 053e 489c ea3d 3233 1e3e
00000070: b6df 783e f532 323e a966 723e d732 0c3e
00000080: b448 f33d 8fc2 113e ec1a 8c3d b5fe 443e
00000090: bcc9 eb3d d6e9 373e e277 453e 021f 253e
0.07212244 0.21097447 0.08081363 0.20301455 0.41028726 0.23915027 0.16520195 0.1138966
0.07766783 0.2809717 0.1978344 0.03192964 0.24462086 0.06744098 0.2811082 0.2330277
0.19748984 0.14804919 0.28863326 0.08109217 0.20657268 0.17690925 0.2405854 0.1918843
0.21043818 0.13077407 0.114555895 0.15449217 0.24304089 0.17402251 0.23671974 0.13691269
0.118791014 0.14234374 0.068410724 0.19237788 0.11513087 0.17960295 0.19284013 0.1612511

weight f4 [5, 40, 1, 1]
00000000: f858 ac3d a084 d3bb 7858 ffbd 6a08 ed3d
00000010: 767a 803d a689 ea3d c94e 04be e079 893b
00000020: 2425 e5bd c487 4f3d aa7a df3d 007c cb39
00000030: d8c7 bcbd 3874 143d 4224 c4bd 4ac4 bf3d
00000040: 29a2 b2bd 8e2e 0dbe d3eb 01be 8037 afbc
00000050: cebf e43d 4a56 d9bd 1282 21bd 7761 1cbe
00000060: c37c 1abe 0094 613d c0f3 813d ac2b 18be
00000070: c77f 12be 10fc 7fbc d49c ac3d 984c 903c
00000080: 240f 303d e06e d83c 542d 753d 3194 21be
00000090: 1555 9fbd 88be 833c 90f0 a6bd b9e6 0e3e
000000a0: be9e 57bd 00c7 e1bb 1a8b f6bd 67fb 0abe
000000b0: 6a2f 48bd 1e69 89bd 7865 f5bd d510 a6bd
000000c0: 0c0e b63d 525d 1ebe 0051 eeba 9406 a5bd
000000d0: 47ff b3bd 20f6 a03d c8f3 653d 8919 053e
000000e0: 4090 193c 737b 113e 7a03 cd3d d270 adbd
000000f0: 34ef 80bd 823e f5bd f52a 033e 922b ed3d
00000100: 00f7 dabc 58bf 9c3d 04e7 913d 10b6 a13c
00000110: 1811 eebd 40de e4bc d0a4 a5bc 6e19 6abd
00000120: 8b41 18be 2056 b03d a908 b0bd 5014 003c
00000130: 9acf 1dbd d269 c43d feda cabd a09d 413d
00000140: 5d81 c7bd fa37 9b3d 80af ffbc 762a 03be
00000150: 6e67 853d a615 ac3d e674 cb3d e09d de3b
00000160: aff8 103e 2832 863c 5019 f53c bbde 083e
00000170: 62a7 d3bd 82e1 cd3d e8de 6fbd b068 5bbc
00000180: 8a5c 72bd 3a0f d23d 5074 103c 00cd 62ba
00000190: 394b 96bd 8334 0b3e 61b6 213e 207c df3b
000001a0: 9035 36bc e3bc 21be f77b 0d3e c4b9 2b3d
000001b0: 90da 64bc 2851 95bd 67b8 16be 4ab8 d73d
000001c0: 9947 e0bd 98eb e03c cc7e 543d f40d 1a3d
000001d0: 86aa e63d aab5 c93d eec0 e13d dfe2 083e
000001e0: be90 ee3d 1e6a c13d 665a 57bd 56f5 01be
000001f0: 77f9 073e c6e9 f93d 4075 f7bc e87e f2bc
00000200: f28f 8d3d c24d f9bd e0b5 94bb f1e4 083e
00000210: 3d07 13be 1ad9 dc3d c69f a13d 8029 fd3a
00000220: 5b0f 093e f88e 21be 9994 053e 5062 2bbc
00000230: 2acf dcbd 5041 28bc 7fd1 01be f679 ed3d
00000240: 2838 e6bd 9357 093e b074 303d 0493 373d
00000250: ca46 1cbe 303e 913d 7971 cfbd ad1c bfbd
00000260: f46f 8a3d de4a cebd 508f 83bd f30f 9cbd
00000270: 782e b13d 4e02 d73d 9f18 1f3e 8e3c ebbd
00000280: 4113 0c3e fe70 9e3d 00dd 773a 54e8 353d
00000290: 60d5 07bd 0be2 193e 6012 783d 78c1 e9bc
000002a0: cc01 423d 08b5 8d3c ece0 6e3d c7b9 8ebd
000002b0: 6580 06be dadc e03d 2267 1abe 99b0 a5bd
000002c0: 7914 8abd 0328 1e3e eac3 a73d f8e6 02bd
000002d0: d40a a03d 63b1 07be c2a8 fb3d 33e7 113e
000002e0: 00e5 43bb 1e56 d93d 0089 5dbb 9233 98bd
000002f0: 6637 d03d 80b8 633b 001b 85ba 1484 eabd
00000300: e85e dbbd 765c db3d 42ac c23d a894 f3bd
00000310: 6d44 c0bd 53e2 c0bd 0fee 06be 08e2 b2bd
0.08415407 -0.006455019 -0.12468046 0.115738705 0.062733576 0.114520356 -0.12920679 0.004195437
-0.11188725 0.050666586 0.10912068 0.00038811564 -0.09217805 0.036243647 -0.09577228 0.09363611
-0.08722336 -0.1378729 -0.12687616 -0.02138877 0.11169396 -0.106121615 -0.039430685 -0.15271555
-0.15086655 0.055072784 0.0634532 -0.1486041 -0.14306556 -0.015624061 0.0842835 0.017614648
0.04298319 0.026420057 0.05985768 -0.15779187 -0.077799 0.016082063 -0.081513524 0.13955201
-0.052641623 -0.0068901777 -0.1203825 -0.13572465 -0.048873343 -0.06709503 -0.11982244 -0.08108679
0.08889398 -0.15465286 -0.0018182099 -0.08057895 -0.08788925 0.078594446 0.05614069 0.12998022
0.009372771 0.14207248 0.10010429 -0.084687844 -0.062956244 -0.11974813 0.12809356 0.11580576
-0.026729107 0.076536834 0.07124141 0.019740134 -0.11624354 -0.027938008 -0.02022019 -0.057153158
-0.14868753 0.08610177 -0.08595402 0.007817343 -0.038528062 0.09590496 -0.09905051 0.047269464
-0.09741471 0.07579036 -0.031211615 -0.12809166 0.06513868 0.084025666 0.09934406 0.0067937225
0.14157365 0.016381338 0.029919297 0.13366215 -0.1033466 0.10052778 -0.05856219 -0.013391659
-0.059170283 0.102568105 0.008816794 -0.0008651763 -0.07338566 0.1359425 0.15792228 0.006820217
-0.011121169 -0.15794711 0.1381682 0.041925207 -0.013968125 -0.0729087 -0.14718781 0.10533197
-0.10951156 0.02745609 0.051878735 0.037610963 0.112629935 0.09849103 0.110231265 0.13367794
0.11648701 0.09444068 -0.052576445 -0.12691244 0.13278757 0.12202792 -0.030207276 -0.02960153
0.06912221 -0.12173034 -0.0045382828 0.13368584 -0.1435823 0.10783596 0.078918025 0.0019314736
0.13384764 -0.15777194 0.13044967 -0.010460451 -0.10781701 -0.010269478 -0.12677573 0.11595528
-0.1124118 0.13412313 0.043080032 0.04481794 -0.15261379 0.070919394 -0.10129065 -0.09331641
0.067596346 -0.100728735 -0.06423819 -0.076202296 0.08651441 0.104984865 0.15536736 -0.11486159
0.1367922 0.07736395 0.0009455234 0.04441102 -0.033162475 0.15027635 0.0605644 -0.028534636
0.047364995 0.017298236 0.05831997 -0.06969028 -0.13134916 0.10979624 -0.15078405 -0.08090324
-0.06742186 0.15444951 0.081916645 -0.03195855 0.07814565 -0.13251261 0.122880474 0.14248352
-0.0029891133 0.10612129 -0.0033803582 -0.07431711 0.101668164 0.0034747422 -0.0010155141 -0.11450973
-0.10711461 0.10710995 0.09505512 -0.11893588 -0.09388051 -0.09418168 -0.1317675 -0.08734518

bias f4 [5]
00000000: 00f4 aab9 b089 96bd 7eb2 fe3d 9864 82bc
00000010: 0003 96bb
-0.0003260672 -0.073504806 0.124363884 -0.015917107 -0.0045779943

weight f4 [5, 40]
00000000: afb8 e1bc 3dce 4cbe f1fb 32be 9d03 21be
00000010: 5506 493d 065d 3a3e d68d 4ebe c153 3c3e
00000020: 9293 2b3e a1d1 a1bd 830f f93d 97d7 973d
00000030: d368 3cbe 356b cabd 148f 1f3d 6c31 153d
00000040: 568a bbbd 12e7 2fbd 1cb4 48bd f986 2c3e
00000050: c4a4 b4bd d531 f1bd d6ac 2dbe 4141 063e
00000060: cfd7 39be 654d 7e3d 9ce7 f83b 765b 3b3e
00000070: 7210 123d cf86 b73d c140 c33d 2053 e0bc
00000080: 2159 1abe 4fce 1bbd 536a 813c 016f 393e
00000090: 502d 033e 9cd0 843d a72d adbd 8743 b93c
000000a0: a8e7 b03d 2ba5 663c 320f b13c 3f3f 7cbd
000000b0: 35f7 a9bd bc05 e93d 2b74 6ebd e2b0 0b3e
000000c0: 965e 15be 09c2 cdbd adbd 1ebe 0499 c8bd
000000d0: ab8c 2d3e aca6 563d 77bf 20bd 193f 1ebe
000000e0: b4b1 113d b1f7 043e b1ae 103e 9173 a23c
000000f0: de89 913d a667 fa3d 0766 d8bc eb80 de3d
00000100: 56b1 d6bd 62fe 00be dec8 383e 641d e3bd
00000110: caf3 32be 379d 40be 828c 07be 17f3 34bc
00000120: 00a6 28be 9958 2fbe 73cd 0b3e 7bf6 383c
00000130: bd3d c43d 2afb 6a3c db81 44bd e668 063d
00000140: 5819 1b3e 1d28 85bd d48c 30be ddd7 64bd
00000150: ee3c 03be 5184 493e 983f f73d 27ec 8cbc
00000160: 2d5d 25be 3f5a 013d b0b0 bfbc fa9b 76bd
00000170: 6bd7 88bd 4576 6f3c 6de3 503e 9664 35be
00000180: 6245 efbd 35f6 86bd 6027 4bbe a4e5 07bd
00000190: 5a5c 42be 7c66 673d a602 febd 72d7 003e
000001a0: 342a c83d 4577 4bbe 4da9 113e 7725 653d
000001b0: 04e1 073e 3cb6 d03d 0033 cb3c 39b1 cd3d
000001c0: 4004 3b3d 9828 0cbb 1202 2e3e dfc0 3c3e
000001d0: 0b9e fdbd d20c 25be bac3 0f3e 2af7 efbd
000001e0: 7916 0fbe d10a 5f3e 789f 4c3a 45d6 b83d
000001f0: 2b02 c8bc 999e e43d 7286 ed3d bd6d d3bd
00000200: 6d98 5a3e 3216 213b c545 b4bd 2bff babd
00000210: 7a23 2ebe 2938 8abd fd75 03be 3019 d83d
00000220: dd44 953d 4ca8 c4bd 8fe3 f1bd f1a5 a03c
00000230: ecfb 1fbd fb21 93bd 08bb f2bd bb8e 1e3d
00000240: f46e de3d 7f76 3fbe c4a9 ab3d b420 bc3d
00000250: 78ee f8bd a33d 313e 41ba e53d cdef cabd
00000260: ad98 c3bd 89c3 263e 2e1d aebc 019b efbc
00000270: 17a0 8cbd 5afb b2bd 7091 1c3e a674 453d
00000280: 8421 363d 1efa 753d 915d 3bbe c3c8 913d
00000290: 5a60 903d 3956 00bc a09a 0fbe 38df b7bd
000002a0: 2a8a d8bd 62b1 ba3d 0844 0fbe 9ed5 003e
000002b0: cb1a 0d3d ad4e 953d 2598 633c 7615 f03b
000002c0: b2ac 013e 5827 7fbc aa96 ccbd 071c 29be
000002d0: 84f2 c93d c073 283e dde4 4e3c cda4 2ebe
000002e0: 7ed5 bc3d 0166 183e 6058 6b3c abe7 f53d
000002f0: 73ba 4a3c d09e ff3d 353f e93c 0309 ed3d
00000300: be9b 473e 3879 1a3e 80e6 1bbd be0c d73d
00000310: 538f d5bd 650f ed3d 148e 0abe e53e 703d
-0.027553884 -0.20000549 -0.1747892 -0.15724035 0.049078304 0.18199548 -0.20171294 0.18391325
0.16755512 -0.07901312 0.12161162 0.074141674 -0.18399362 -0.09883729 0.03895481 0.036424085
-0.09157245 -0.042944975 -0.04899989 0.16848363 -0.08820489 -0.11777083 -0.16960463 0.1311083
-0.1814873 0.062085528 0.0075959694 0.18296608 0.035660215 0.089612596 0.09533835 -0.027383387
-0.15073062 -0.038038548 0.01579777 0.18108751 0.12810254 0.064851016 -0.08455973 0.022615207
0.08637935 0.014077465 0.021613691 -0.061583754 -0.08299104 0.11378047 -0.058216255 0.13641694
-0.14586863 -0.10046775 -0.15502043 -0.097948104 0.16948192 0.052405044 -0.039245095 -0.15453757
0.03556986 0.12985112 0.1412914 0.019830497 0.07106374 0.122268006 -0.026415838 0.10864433
-0.10483043 -0.1259704 0.18045375 -0.1108959 -0.1747581 -0.18809973 -0.13237193 -0.011044285
-0.16469574 -0.17123641 0.13652591 0.011289234 0.09582088 0.014342109 -0.047975402 0.032814883
0.15146387 -0.065017916 -0.17241222 -0.055869926 -0.12816212 0.19679381 0.120726764 -0.01720245
-0.16148825 0.031580206 -0.02339968 -0.060207345 -0.06681713 0.0146156 0.20399256 -0.17714152
-0.116831556 -0.06589929 -0.19839239 -0.033177987 -0.18980542 0.05649422 -0.12402849 0.12582186
0.097736746 -0.19869716 0.1422474 0.055943932 0.1326943 0.101910084 0.024804592 0.10043568
0.04565835 -0.00213865 0.16992977 0.1843295 -0.1238366 -0.16118172 0.14039508 -0.11717065
-0.13973416 0.2178147 0.0007805745 0.09025244 -0.024415096 0.111630626 0.11597909 -0.10323665
0.21347208 0.002457988 -0.0880237 -0.09130701 -0.1700572 -0.06748993 -0.12837978 0.10551679
0.07288525 -0.096024126 -0.118109815 0.019610377 -0.03905861 -0.07184216 -0.1185208 0.038710337
0.108610064 -0.18697546 0.083819896 0.09185925 -0.12154859 0.17308669 0.11217166 -0.099090196
-0.09550605 0.16285528 -0.021254148 -0.029248716 -0.06866472 -0.08739348 0.15289855 0.048206948
0.044465557 0.060052983 -0.18297412 0.071183704 0.070496276 -0.007833057 -0.14023829 -0.089781225
-0.10573228 0.09115864 -0.13990796 0.12581488 0.03444938 0.07290397 0.013891255 0.007326777
0.12663534 -0.015573345 -0.099896744 -0.16514598 0.09860709 0.16450405 0.012627807 -0.17055054
0.09220408 0.14882661 0.014364332 0.12007078 0.0123735545 0.12481463 0.028472522 0.115739845
0.19493005 0.15085304 -0.03806162 0.10500477 -0.104277276 0.11575202 -0.13530761 0.05865373

bias f4 [5]
00000000: e7fa 88bd dd68 03bd ffd4 95bc 77ad 63bd
00000010: 33b9 20be
-0.06688481 -0.032082427 -0.018290041 -0.05558535 -0.15695648
